…
n a future version.\n","Instructions for updating:\n","If using Keras pass *_constraint arguments to layers.\n","Downloading data from https://github.com/keras-team/keras-applications/releases/download/resnet/resnet50_weights_tf_dim_ordering_tf_kernels_notop.h5\n","94773248/94765736 [==============================] - 1s 0us/step\n","Model: \"sequential\"\n","_________________________________________________________________\n","Layer (type)                 Output Shape              Param #   \n","=================================================================\n","resnet50 (Model)             (None, 2048)              23587712  \n","_________________________________________________________________\n","flatten (Flatten)            (None, 2048)              0         \n","_________________________________________________________________\n","dropout (Dropout)            (None, 2048)              0         \n","_________________________________________________________________\n","batch_normalization (BatchNo (None, 2048)              8192      \n","_________________________________________________________________\n","dense (Dense)                (None, 512)               1049088   \n","_________________________________________________________________\n","dropout_1 (Dropout)          (None, 512)               0         \n","_________________________________________________________________\n","batch_normalization_1 (Batch (None, 512)               2048      \n","_________________________________________________________________\n","dense_1 (Dense)              (None, 50)                25650     \n","=================================================================\n","Total params: 24,672,690\n","Trainable params: 24,614,450\n","Non-trainable params: 58,240\n","_________________________________________________________________\n"],"name":"stdout"}]},{"cell_type":"code","metadata":{"id":"dzJE4FrhnC6T","colab_type":"code","colab":{}},"source":["batch_size = 32\n","epochs = 50"],"execut
…
